models/test_model/1/model.onnx (onnx, 471 bytes, 4 tensors)

weight1 f4 [3, 5]
000000 51 51 fe 3e 28 95 0d be eb ce 25 3f a4 f2 c2 3f
       0.49671414 -0.1382643 0.64768857 1.5230298
000010 e7 c5 6f be 99 c1 6f be a5 23 ca 3f 9a 76 44 3f
       -0.23415338 -0.23413695 1.5792128 0.7674347
000020 f2 5e f0 be 37 e5 0a 3f 15 45 ed be 21 74 ee be
       -0.46947438 0.54256004 -0.46341768 -0.46572974
000030 f5 c4 77 3e 5e e6 f4 bf 1c ca dc bf
       0.24196227 -1.9132802 -1.7249179

bias1 f4 [5]
000000 13 f2 0f bf 73 a4 81 bf 07 e5 a0 3e 44 74 68 bf
       -0.5622875 -1.0128311 0.31424734 -0.9080241
000010 5e c6 b4 bf
       -1.4123037

weight2 f4 [5, 2]
000000 61 9a bb 3f e7 31 67 be 3a 4c 8a 3d 26 5e b6 bf
       1.4656488 -0.2257763 0.0675282 -1.4247482
000010 ab 5c 0b bf 62 2b e3 3d c2 53 93 bf 7e 5b c0 3e
       -0.54438275 0.11092259 -1.1509936 0.37569803
000020 75 c3 19 bf e2 58 95 be
       -0.6006387 -0.29169375

bias2 f4 [2]
000000 72 09 1a bf 74 17 ed 3f
       -0.6017066 1.8522782
